Burgel/model/artifacts/model_ridge.npz (npz, 2544 bytes, 5 tensors)

mean f8 [54]
2.1799869958165083 135.17860265026948 8.635431312562305 9.529082265746007 8.245447484646604 1.2864617989090388 5.287032906029654 5.351298819422199
237.3262026529775 0.7818539550267309 9.529082265746007 2.4928360536893703 -178.24999978968685 2.6802192113101753 2.803385924992368 1.9880655858431193
0.024424381375016783 8.546945887928146 0.00955732255443923 9.529082265746007 1.0240384929383237 0.2879865181711659 10.839976553341149 0.017215835975080394
0.018463085044058653 0.01573988396192491 0.0 0.0 0.055190115683853055 0.042477695710608464 0.01051957720662681 0.01183020953105201
0.05525815852525912 0.014670948060510952 0.009685762406142303 0.01463363173885707 0.01104493548264694 0.0 0.8551640352273645 0.1448359647726333
0.0798294575799867 0.2648650221973029 0.28299363340623407 0.2286188618228279 0.07868651780100203 0.06500650719264651 40.758065650644625 1154.20256066823
0.5985254417960988 0.5304695801922142 0.29409111139639327 3.8328839130491548 150.9221596855792 0.31806565064478587
00000000: c5e5 a505 9d70 0140 5dbc e71c b7e5 6040
00000010: 719e c440 5745 2140 9d8b e8de e30e 2340
00000020: a0e2 ee4a ab7d 2040 e5e1 9df7 5895 f43f
00000030: c317 41f4 eb25 1540 c22a b2e0 ba67 1540
00000040: 05cd 8b40 70aa 6d40 6cd1 e295 f204 e93f
00000050: 9d8b e8de e30e 2340 9915 6707 54f1 0340
00000060: c816 8fff ff47 66c0 4381 15c5 1671 0540
00000070: 7d45 8f99 556d 0640 0bfd 17dc 1dcf ff3f
00000080: 1e44 ec7c b402 993f 88aa 9a4a 0918 2140
00000090: 1418 781e ca92 833f 9d8b e8de e30e 2340
000000a0: 5f3e d02f 7662 f03f f5fa 4e01 5f6e d23f
000000b0: 9a03 2468 11ae 2540 e9f0 f131 07a1 913f
000000c0: 153d caa9 fce7 923f f8ec 6fbb 1d1e 903f
000000d0: 0000 0000 0000 0000 0000 0000 0000 0000
000000e0: e665 d9fb e041 ac3f b3e3 c5f3 a2bf a53f
000000f0: d5c9 8fc0 498b 853f 5c58 53d8 6f3a 883f
00000100: 1906 681f cc4a ac3f 833c f850 cd0b 8e3f
00000110: d16e 2b06 21d6 833f e2b8 ebcd 3cf8 8d3f
00000120: f7a5 7925 ba9e 863f 0000 0000 0000 0000
00000130: a18a 80f7 805d eb3f 2dd5 fd21 fc89 c23f
00000140: 0f3f 900d b46f b43f 4e45 0c6c 8cf3 d03f
00000150: ea2e 1d54 911c d23f 958e 6303 6243 cd3f
00000160: aa67 97b4 cc24 b43f 456b 6b36 44a4 b03f
00000170: acde 944b 0861 4440 0456 106c cf08 9240
00000180: 80d2 cad3 1e27 e33f 5f59 4e57 9bf9 e03f
00000190: af79 5f86 63d2 d23f f748 7f0a bfa9 0e40
000001a0: 1368 0755 82dd 6240 3005 e007 305b d43f

std f8 [54]
0.06646472291920953 2.3143769961807417 0.6942432460362059 0.4709113066935709 0.3255097325891003 0.3069946521019661 0.21268646819385856 0.7427195727090319
40.231280139773986 0.23238826237275234 0.4709113066935709 0.24862416181500077 46.652685318762835 0.3987012894607253 0.39273737112968 0.6176775848205467
0.012252808792891905 2.0348413412302535 0.008565650569035731 0.4709113066935709 0.4574857876890927 0.1340798035578391 4.115443820823896 0.03323194144694478
0.031676126411508604 0.029384810217722733 1.0 1.0 0.04403173613176154 0.035438722567987524 0.02449191411638445 0.028280100318017757
0.04600516026426524 0.03446336176469805 0.020898645848730663 0.03262834386560213 0.027654947676330487 1.0 0.199696759312987 0.1996967593129871
0.14845171033507049 0.2397459240665092 0.2228007341503793 0.19286775889807478 0.180750636821455 0.16798736201100878 0.8232745702159884 2122.2582477365336
0.16749146453704422 0.44114841160790885 0.36456526168975284 0.07259007317596708 35.03929978859207 0.8232745702159879
00000000: b594 4603 d503 b13f 22b0 2916 d883 0240
00000010: 6938 a69c 3d37 e63f 5d31 642d 6923 de3f
00000020: 38fe ffc5 26d5 d43f 36ca b4e5 cca5 d33f
00000030: 02e1 9868 4f39 cb3f e44c 5cd6 5bc4 e73f
00000040: 9445 6e96 9a1d 4440 24c0 6e09 e6be cd3f
00000050: 5d31 642d 6923 de3f dbd3 fea1 ead2 cf3f
00000060: 3655 4931 8b53 4740 8bd6 c669 5284 d93f
00000070: bcd0 3aed 9b22 d93f 34d9 48c8 03c4 e33f
00000080: f69a 6528 0018 893f cd0f a9e5 5a47 0040
00000090: 99f7 8028 de8a 813f 5d31 642d 6923 de3f
000000a0: df9a 2078 7247 dd3f 0ce2 aae9 8629 c13f
000000b0: 0ddb abe7 3676 1040 55f9 64eb c603 a13f
000000c0: 5cb6 006e da37 a03f 3682 893b 0d17 9e3f
000000d0: 0000 0000 0000 f03f 0000 0000 0000 f03f
000000e0: a912 58e5 538b a63f 600f e234 0625 a23f
000000f0: cdd2 9588 6814 993f 4154 f967 75f5 9c3f
00000100: 1c84 9005 fd8d a73f 9812 6187 2ea5 a13f
00000110: d8ce cd61 7466 953f 459b a68b a9b4 a03f
00000120: 23a6 5e1f 9451 9c3f 0000 0000 0000 f03f
00000130: 3fe8 2ed5 a98f c93f 43e8 2ed5 a98f c93f
00000140: 8252 7634 7700 c33f b083 9b93 feaf ce3f
00000150: 89af 5905 bc84 cc3f 02c4 7506 e4af c83f
00000160: a58d f03c d622 c73f 9e42 fd20 9c80 c53f
00000170: 9598 56e9 4358 ea3f 5b1d 0c39 8494 a040
00000180: 18db 453d 5c70 c53f c273 228c c63b dc3f
00000190: 59c5 0d89 0955 d73f 2616 4e56 4395 b23f
000001a0: 0f5f 85c6 0785 4140 9198 56e9 4358 ea3f

coef f8 [54]
-0.012441337725988783 -0.0276745760142661 -0.015831372800440092 -0.01039333869350443 -0.020690722640649094 -0.0021090328046245634 0.005437096263525151 0.000908067578001812
-0.005756537284751597 -0.03779171144968126 -0.01039333869350809 0.01001625032124161 -0.011012501998935496 0.004957827397181465 0.006968305605486523 0.00023609485749516912
0.029657031874391976 -0.13414660952368343 0.049079661383342174 -0.010393338693508105 0.056244202048078236 0.04581175559331486 -0.054160465174695846 -0.028603466718933324
0.019039155711252538 0.0014671625235093454 0.0 0.0 0.08183998019452601 0.02739837230642392 -0.01793725976394184 0.09237786662938458
0.0212603206288399 0.05183379931017469 0.015618307817905786 0.039799049083881564 0.036619310162818025 0.0 -0.01624850936924961 0.016248509367073685
0.059241881140603955 -0.006396284196730312 0.003286386646964516 0.009270900223189693 -0.0234110306825467 -0.03303691327657565 -0.018850645056352578 0.001404558327253256
0.03779194758728412 -0.007188974333522461 -0.011032596307248869 0.16531245939656017 0.03855572919015354 -0.01885064504920288
00000000: ca80 3615 d87a 89bf 52d3 a55b b956 9cbf
00000010: 5af6 b671 1936 90bf f460 474e 1a49 85bf
00000020: 63ed 49e4 f22f 95bf ac76 815d f646 61bf
00000030: 6355 316a 3545 763f 84e1 6846 6cc1 4d3f
00000040: a9f7 04b6 2a94 77bf bbf5 7869 6f59 a3bf
00000050: 3269 474e 1a49 85bf aa5c 775c 6683 843f
00000060: 5fe3 75ff b88d 86bf af51 7ba8 a84e 743f
00000070: d810 f24a cc8a 7c3f b0ea 2562 07f2 2e3f
00000080: a8de fcb7 695e 9e3f 2102 6352 b72b c1bf
00000090: 3e96 1429 f820 a93f 3b69 474e 1a49 85bf
000000a0: 81b0 c540 0acc ac3f 215d 1770 a374 a73f
000000b0: 9eab 52a5 ebba abbf 20af 7028 3a4a 9dbf
000000c0: 723d 7e1c 007f 933f 94e2 9bc3 b909 583f
000000d0: 0000 0000 0000 0000 0000 0000 0000 0000
000000e0: c2d6 7006 77f3 b43f 3932 14a4 510e 9c3f
000000f0: 1192 4320 255e 92bf 1c26 0c6c 13a6 b73f
00000100: 299f 36f7 43c5 953f 7ab0 bab1 f589 aa3f
00000110: 1ac7 5fca 7dfc 8f3f a34f 747c 8a60 a43f
00000120: fc4e 1a27 c4bf a23f 0000 0000 0000 0000
00000130: a411 6601 73a3 90bf c47f 5c01 73a3 903f
00000140: e6d5 1aac f354 ae3f 6dd6 0d77 fd32 7abf
00000150: 8991 7665 0dec 6a3f 13c9 1a2a 9ffc 823f
00000160: 24b9 96ac 0ff9 97bf 30d8 2adc 36ea a0bf
00000170: bd26 1a60 954d 93bf 9017 2d05 2503 573f
00000180: 430a e155 7759 a33f d1db 779a 2f72 7dbf
00000190: 8f07 a302 4298 86bf 0562 5d6b f528 c53f
000001a0: a8e9 e397 93bd a33f e5b4 fa5f 954d 93bf

intercept f8 []
-0.10782039471634819
00000000: d805 260d 1e9a bbbf

alpha f8 []
1.0
00000000: 0000 0000 0000 f03f
